…
  desc: null
  value: <stable_baselines3.common.buffers.ReplayBuffer object at 0x7723c739d270>
replay_buffer_class:
  desc: null
  value: <class 'stable_baselines3.common.buffers.ReplayBuffer'>
replay_buffer_kwargs:
  desc: null
  value: '{}'
_episode_storage:
  desc: null
  value: None
use_sde_at_warmup:
  desc: null
  value: 'False'
lr_schedule:
  desc: null
  value: <function get_schedule_fn.<locals>.<lambda> at 0x7723c73a4820>
actor:
  desc: null
  value: "Actor(\n  (features_extractor): FlattenExtractor(\n    (flatten): Flatten(start_dim=1,\
    \ end_dim=-1)\n  )\n  (mu): Sequential(\n    (0): Linear(in_features=20, out_features=256,\
    \ bias=True)\n    (1): ELU(alpha=1.0)\n    (2): Linear(in_features=256, out_features=128,\
    \ bias=True)\n    (3): ELU(alpha=1.0)\n    (4): Linear(in_features=128, out_features=6,\
    \ bias=True)\n    (5): Tanh()\n  )\n)"
actor_target:
  desc: null
  value: "Actor(\n  (features_extractor): FlattenExtractor(\n    (flatten): Flatten(start_dim=1,\
    \ end_dim=-1)\n  )\n  (mu): Sequential(\n    (0): Linear(in_features=20, out_features=256,\
    \ bias=True)\n    (1): ELU(alpha=1.0)\n    (2): Linear(in_features=256, out_features=128,\
    \ bias=True)\n    (3): ELU(alpha=1.0)\n    (4): Linear(in_features=128, out_features=6,\
    \ bias=True)\n    (5): Tanh()\n  )\n)"
critic:
  desc: null
  value: "ContinuousCritic(\n  (features_extractor): FlattenExtractor(\n    (flatten):\
    \ Flatten(start_dim=1, end_dim=-1)\n  )\n  (qf0): Sequential(\n    (0): Linear(in_features=26,\
    \ out_features=256, bias=True)\n    (1): ELU(alpha=1.0)\n    (2): Linear(in_features=256,\
    \ out_features=128, bias=True)\n    (3): ELU(alpha=1.0)\n    (4): Linear(in_features=128,\
    \ out_features=1, bias=True)\n  )\n  (qf1): Sequential(\n    (0): Linear(in_features=26,\
    \ out_features=256, bias=True)\n    (1): ELU(alpha=1.0)\n    (2): Linear(in_features=256,\
    \ out_features=128, bias=True)\n    (3): ELU(alpha=1.0)\n    (4): Linear(in_features=128,\
    \ out_features=1, bias=True)\n  )\n)"
critic_target:
  desc: null
  value: "ContinuousCritic(\n  (features_extractor): FlattenExtractor(\n    (flatten):\
    \ Flatten(start_dim=1, end_dim=-1)\n  )\n  (qf0): Sequential(\n    (0): Linear(in_features=26,\
    \ out_features=256, bias=True)\n    (1): ELU(alpha=1.0)\n    (2): Linear(in_features=256,\
    \ out_features=128, bias=True)\n    (3): ELU(alpha=1.0)\n    (4): Linear(in_features=128,\
    \ out_features=1, bias=True)\n  )\n  (qf1): Sequential(\n    (0): Linear(in_features=26,\
    \ out_features=256, bias=True)\n    (1): ELU(alpha=1.0)\n    (2): Linear(in_features=256,\
    \ out_features=128, bias=True)\n    (3): ELU(alpha=1.0)\n    (4): Linear(in_features=128,\
    \ out_features=1, bias=True)\n  )\n)"
actor_batch_norm_stats:
  desc: null
  value: '[]'
critic_batch_norm_stats:
  desc: null
  value: '[]'
actor_batch_norm_stats_target:
  desc: null
  value: '[]'
critic_batch_norm_stats_target:
  desc: null
  value: '[]'
_logger:
  desc: null
  value: <stable_baselines3.common.logger.Logger object at 0x7723ad3da500>
